__________________________________________________________________________________________________
Layer (type)                    Output Shape         Param #     Connected to
==================================================================================================
input_1 (InputLayer)            (None, 20729)        0
__________________________________________________________________________________________________
dense_1 (Dense)                 (None, 16)           331680      input_1[0][0]
__________________________________________________________________________________________________
dense_2 (Dense)                 (None, 16)           331680      input_1[0][0]
__________________________________________________________________________________________________
dense_3 (Dense)                 (None, 16)           331680      input_1[0][0]
__________________________________________________________________________________________________
dense_4 (Dense)                 (None, 16)           331680      input_1[0][0]
__________________________________________________________________________________________________
dense_5 (Dense)                 (None, 16)           331680      input_1[0][0]
__________________________________________________________________________________________________
dense_6 (Dense)                 (None, 16)           331680      input_1[0][0]
__________________________________________________________________________________________________
dense_7 (Dense)                 (None, 16)           331680      input_1[0][0]
__________________________________________________________________________________________________
dense_8 (Dense)                 (None, 16)           331680      input_1[0][0]
__________________________________________________________________________________________________
dense_9 (Dense)                 (None, 16)           331680      input_1[0][0]
__________________________________________________________________________________________________
dense_10 (Dense)                (None, 16)           331680      input_1[0][0]
__________________________________________________________________________________________________
dense_11 (Dense)                (None, 16)           331680      input_1[0][0]
__________________________________________________________________________________________________
dense_12 (Dense)                (None, 16)           331680      input_1[0][0]
__________________________________________________________________________________________________
dense_13 (Dense)                (None, 16)           331680      input_1[0][0]
__________________________________________________________________________________________________
dense_14 (Dense)                (None, 16)           331680      input_1[0][0]
__________________________________________________________________________________________________
dense_15 (Dense)                (None, 16)           331680      input_1[0][0]
__________________________________________________________________________________________________
dense_16 (Dense)                (None, 16)           331680      input_1[0][0]
__________________________________________________________________________________________________
concatenate_1 (Concatenate)     (None, 256)          0           dense_1[0][0]
                                                                 dense_2[0][0]
                                                                 dense_3[0][0]
                                                                 dense_4[0][0]
                                                                 dense_5[0][0]
                                                                 dense_6[0][0]
…
